name: "VGG_ILSVRC_16_layer"
input: "data"
input_dim: 1
input_dim: 3
input_dim: 360
input_dim: 480
layer {
  bottom: "data"
  top: "conv1_1"
  name: "conv1_1"
  type: "Convolution"
  param {
    lr_mult: 1
    decay_mult: 1
  }
  param {
    lr_mult: 2
    decay_mult: 0
  }
  convolution_param {
    weight_filler {
      type: "msra"
    }
    bias_filler {
      type: "constant"
    }
    num_output: 64
    pad: 1
    kernel_size: 3
  }
}
layer {
  bottom: "conv1_1"
  top: "conv1_1"
  name: "conv1_1_bn"
  type: "BN"
  param {
    lr_mult: 1
    decay_mult: 1
  }
  param {
    lr_mult: 1
    decay_mult: 0
  }
  bn_param {
	scale_filler {
	  type: "constant"
	  value: 1
	}
	shift_filler {
	  type: "constant"
	  value: 0.001
	}
 }
}
layer {
  bottom: "conv1_1"
  top: "conv1_1"
  name: "relu1_1"
  type: "ReLU"
}
layer {
  bottom: "conv1_1"
  top: "conv1_2"
  name: "conv1_2"
  type: "Convolution"
  param {
    lr_mult: 1
    decay_mult: 1
  }
  param {
    lr_mult: 2
    decay_mult: 0
  }
  convolution_param {
    weight_filler {
      type: "msra"
    }
    bias_filler {
      type: "constant"
    }
    num_output: 64
    pad: 1
    kernel_size: 3
  }
}
layer {
  bottom: "conv1_2"
  top: "conv1_2"
  name: "conv1_2_bn"
  type: "BN"
  param {
    lr_mult: 1
    decay_mult: 1
  }
  param {
    lr_mult: 1
    decay_mult: 0
  }
  bn_param {
	scale_filler {
	  type: "constant"
	  value: 1
	}
	shift_filler {
	  type: "constant"
	  value: 0.001
	}
 }
}
layer {
  bottom: "conv1_2"
  top: "conv1_2"
  name: "relu1_2"
  type: "ReLU"
}
layer {
  bottom: "conv1_2"
  top: "pool1"
  top: "pool1_mask"
  name: "pool1"
  type: "Pooling"
  pooling_param {
    pool: MAX
    kernel_size: 2
    stride: 2
  }
}
layer {
  bottom: "pool1"
  top: "conv2_1"
  name: "conv2_1"
  type: "Convolution"
  param {
    lr_mult: 1
    decay_mult: 1
  }
  param {
    lr_mult: 2
    decay_mult: 0
  }
  convolution_param {
    weight_filler {
      type: "msra"
    }
    bias_filler {
      type: "constant"
    }
    num_output: 128
    pad: 1
    kernel_size: 3
  }
}
layer {
  bottom: "conv2_1"
  top: "conv2_1"
  name: "conv2_1_bn"
  type: "BN"
  param {
    lr_mult: 1
    decay_mult: 1
  }
  param {
    lr_mult: 1
    decay_mult: 0
  }
  bn_param {
	scale_filler {
	  type: "constant"
	  value: 1
	}
	shift_filler {
	  type: "constant"
	  value: 0.001
	}
 }
}
layer {
  bottom: "conv2_1"
  top: "conv2_1"
  name: "relu2_1"
  type: "ReLU"
}
layer {
  bottom: "conv2_1"
  top: "conv2_2"
  name: "conv2_2"
  type: "Convolution"
  param {
    lr_mult: 1
    decay_mult: 1
  }
  param {
    lr_mult: 2
    decay_mult: 0
  }
  convolution_param {
    weight_filler {
      type: "msra"
    }
    bias_filler {
      type: "constant"
    }
    num_output: 128
    pad: 1
    kernel_size: 3
  }
}
layer {
  bottom: "conv2_2"
  top: "conv2_2"
  name: "conv2_2_bn"
  type: "BN"
  param {
    lr_mult: 1
    decay_mult: 1
  }
  param {
    lr_mult: 1
    decay_mult: 0
  }
  bn_param {
	scale_filler {
	  type: "constant"
	  value: 1
	}
	shift_filler {
	  type: "constant"
	  value: 0.001
	}
 }
}
layer {
  bottom: "conv2_2"
  top: "conv2_2"
  name: "relu2_2"
  type: "ReLU"
}
layer {
  bottom: "conv2_2"
  top: "pool2"
  top: "pool2_mask"
  name: "pool2"
  type: "Pooling"
  pooling_param {
    pool: MAX
    kernel_size: 2
    stride: 2
  }
}
layer {
  name: "upsample2"
  type: "Upsample"
  bottom: "pool2"
  top: "pool2_D"
  bottom: "pool2_mask"
  upsample_param {
    scale: 2
  }
}
layer {
  bottom: "pool2_D"
  top: "conv2_2_D"
  name: "conv2_2_D"
  type: "Convolution"
  param {
    lr_mult: 1
    decay_mult: 1
  }
  param {
    lr_mult: 2
    decay_mult: 0
  }
  convolution_param {
    weight_filler {
      type: "msra"
    }
    bias_filler {
      type: "constant"
    }
    num_output: 128
    pad: 1
    kernel_size: 3
  }
}
layer {
  bottom: "conv2_2_D"
  top: "conv2_2_D"
  name: "conv2_2_D_bn"
  type: "BN"
  param {
    lr_mult: 1
    decay_mult: 1
  }
  param {
    lr_mult: 1
    decay_mult: 0
  }
  bn_param {
	scale_filler {
	  type: "constant"
	  value: 1
	}
	shift_filler {
	  type: "constant"
	  value: 0.001
	}
 }
}
layer {
  bottom: "conv2_2_D"
  top: "conv2_2_D"
  name: "relu2_2_D"
  type: "ReLU"
}
layer {
  bottom: "conv2_2_D"
  top: "conv2_1_D"
  name: "conv2_1_D"
  type: "Convolution"
  param {
    lr_mult: 1
    decay_mult: 1
  }
  param {
    lr_mult: 2
    decay_mult: 0
  }
  convolution_param {
    weight_filler {
      type: "msra"
    }
    bias_filler {
      type: "constant"
    }
    num_output: 64
    pad: 1
    kernel_size: 3
  }
}
layer {
  bottom: "conv2_1_D"
  top: "conv2_1_D"
  name: "conv2_1_D_bn"
  type: "BN"
  param {
    lr_mult: 1
    decay_mult: 1
  }
  param {
    lr_mult: 1
    decay_mult: 0
  }
  bn_param {
	scale_filler {
	  type: "constant"
	  value: 1
	}
	shift_filler {
	  type: "constant"
	  value: 0.001
	}
 }
}
layer {
  bottom: "conv2_1_D"
  top: "conv2_1_D"
  name: "relu2_1_D"
  type: "ReLU"
}
layer {
  name: "upsample1"
  type: "Upsample"
  bottom: "conv2_1_D"
  top: "pool1_D"
  bottom: "pool1_mask"
  upsample_param {
    scale: 2
  }
}
layer {
  bottom: "pool1_D"
  top: "conv1_2_D"
  name: "conv1_2_D"
  type: "Convolution"
  param {
    lr_mult: 1
    decay_mult: 1
  }
  param {
    lr_mult: 2
    decay_mult: 0
  }
  convolution_param {
    weight_filler {
      type: "msra"
    }
    bias_filler {
      type: "constant"
    }
    num_output: 64
    pad: 1
    kernel_size: 3
  }
}
layer {
  bottom: "conv1_2_D"
  top: "conv1_2_D"
  name: "conv1_2_D_bn"
  type: "BN"
  param {
    lr_mult: 1
    decay_mult: 1
  }
  param {
    lr_mult: 1
    decay_mult: 0
  }
  bn_param {
	scale_filler {
	  type: "constant"
	  value: 1
	}
	shift_filler {
	  type: "constant"
	  value: 0.001
	}
 }
}
layer {
  bottom: "conv1_2_D"
  top: "conv1_2_D"
  name: "relu1_2_D"
  type: "ReLU"
}
layer {
  bottom: "conv1_2_D"
  top: "conv1_1_D"
  name: "conv1_1_D"
  type: "Convolution"
  param {
    lr_mult: 1
    decay_mult: 1
  }
  param {
    lr_mult: 2
    decay_mult: 0
  }
  convolution_param {
    weight_filler {
      type: "msra"
    }
    bias_filler {
      type: "constant"
    }
    num_output: 2
    pad: 1
    kernel_size: 3
  }
}
layer {
  name: "argmax"
  type: "ArgMax"
  bottom: "conv1_1_D"
  top: "argmax"
  argmax_param {
    axis: 1
  }
}
